Bengali.AI-Handwritten-Grapheme-Classification/baseline_weights.pth (torch_old, 314148 bytes, 22 tensors)

conv_block.conv2d1.weight f4 [6, 1, 6, 6]
0	0xbd1101a4	-0.035401955
1	0x3e787d09	0.24266447
2	0x3d917202	0.071018234
3	0xbdd0e493	-0.10199847
4	0x3e048748	0.1294223
5	0x3c9d6a36	0.019215684
6	0x3c4048bd	0.011736092
7	0x3dc3276f	0.09529006
8	0x3dbd0b55	0.09230677
9	0x3d772894	0.060341433
10	0x3c7ddcaf	0.01549451
11	0xbc980361	-0.018556299
12	0x3e54b852	0.20773438
13	0x3e2597dd	0.16171212
14	0x3e042f9b	0.12908785
15	0x3d8d3809	0.068954535
16	0xbdbc68f3	-0.09199705
17	0x3db5b021	0.088714845
18	0x3da31e16	0.07964723
19	0xbc04cebb	-0.008105929
20	0x3e103231	0.14081647
21	0x3dbedcfc	0.09319493
22	0x3d87f1ed	0.066379406
23	0xbdd003f5	-0.10157005
24	0xbde2e97e	-0.11079691
25	0xbd49fd3c	-0.04931377
26	0x3c288b5f	0.010287135
27	0x3e1ef4d1	0.15523078
28	0x3d82b8a0	0.06382871
29	0x3d6ad485	0.05733158
30	0x3e3dc9a8	0.18533957
31	0xbc90008e	-0.01757839
32	0x3c5478de	0.01296827
33	0xbd9eba1b	-0.077503406
34	0xb94d7061	-0.00019592188
35	0x3d4c7965	0.04992046
36	0x3e6e9ae2	0.2330127
37	0x3e0a4820	0.13504076
38	0x3e1e191d	0.15439267
39	0x3d990b24	0.07472828
40	0x3db05aa3	0.086110376
41	0x3e58dabb	0.21177189
42	0xbca3f0dc	-0.020012312
43	0x3c1bc940	0.009508431
44	0x3e1805be	0.1484594
45	0x3e2ed0c7	0.1707183
46	0x3d523e02	0.051328667
47	0x3d82a92e	0.06379925
48	0x3e27d89b	0.16391222
49	0x3d3c3728	0.04595104
50	0x3e4885bd	0.19582267
51	0x3e69daf3	0.22837429
52	0x3e000f53	0.12505846
53	0x3d5c99a7	0.05385747
54	0x3dc8d499	0.09806175
55	0x3d8ce468	0.068795025
56	0x3d6c1242	0.0576346
57	0x3e794483	0.24342541
58	0x3d885bcc	0.06658134
59	0xbbeb6591	-0.0071837385
60	0x3e0be935	0.1366318
61	0x3dcb9e9b	0.09942361
62	0x3dcb0ec9	0.099149294
63	0x3e30acf0	0.1725347
64	0x3d129983	0.03579093
65	0x3d80f694	0.06297031
66	0xbd059b2d	-0.03261869
67	0xbd53b08e	-0.051682048
68	0xbd71af51	-0.059005085
69	0x3d91a6e3	0.07111909
70	0xbcaa9c74	-0.020826556
71	0x3d965067	0.07339554
72	0xbd0eef7f	-0.03489637
73	0x3cfc653a	0.030809987
74	0xbd91e148	-0.07123047
75	0x3da2a92d	0.07942424
76	0xbd2f94b8	-0.04286644
77	0xbd9dd929	-0.07707436
78	0xbe055cd0	-0.13023686
79	0x3c784f6d	0.015155655
80	0x3cd63914	0.026150264
81	0xbd351a66	-0.04421463
82	0xbd9805a1	-0.07422949
83	0xbe629d79	-0.22130384
84	0xbda93b90	-0.08263314
85	0x3da7be00	0.081905365
86	0xbdb19353	-0.08670678
87	0xbe462479	-0.1934985
88	0xbd5d0db2	-0.05396814
89	0xbc9a1660	-0.018809497
90	0xbbccb488	-0.006247107
91	0xbd40016e	-0.046876363
92	0x3de27347	0.11057144
93	0xbe002d9b	-0.12517397
94	0xb99e4bb7	-0.0003019252
95	0xbe1c791a	-0.15280572
96	0xbdf471e9	-0.11935789
97	0xbc7c5ac9	-0.015402504
98	0xbe291368	-0.16511309
99	0xbe817831	-0.2528701
100	0x3d038ebf	0.032118555
101	0xbe98e5cd	-0.29862824
102	0xbe204dff	-0.15654753
103	0xbe21e0a0	-0.15808344
104	0xbdb9e18d	-0.090762235
105	0xbd9f1df3	-0.07769384
106	0xbd920a39	-0.07130856
107	0x3e02542b	0.1272742
108	0xbd8b4a7b	-0.068013154
109	0x3e13fb4a	0.14451328
110	0x3e58ef17	0.21184956
111	0x3dbef7e2	0.09324624
112	0x3b6bd601	0.003598571
113	0x3e6292d1	0.22126319
114	0xbd15da59	-0.036585186
115	0x3cd3988c	0.025829576
116	0x3dfe7efe	0.124265656
117	0x3e4608bf	0.19339274
118	0x3d6ead4e	0.058270745
119	0x3cebdedd	0.028792793
120	0x3de0ae91	0.10970796
121	0x3d8c31e4	0.068454534
122	0x3e27e8d7	0.16397415
123	0x3e5a96ae	0.21346542
124	0x3d248553	0.04016621
125	0x3e738425	0.23780878
126	0xbcc0f057	-0.023552103
127	0x3dddc69a	0.10828896
128	0x3e083ca3	0.13304381
129	0x3dd5ef91	0.10446084
130	0x3e0a9453	0.13533144
131	0x3e5f64c5	0.21815784
132	0x3c0cadab	0.008586328
133	0xbd53bab6	-0.051691733
134	0x3dca0457	0.09864109
135	0x3e0bc3a0	0.13648844
136	0x3c5c8b42	0.013460936
137	0x3d67db14	0.056605414
138	0x3e1534cb	0.1457092
139	0x3dc9060e	0.09815608
140	0x3e3d2998	0.18472898
141	0x3dd01203	0.101596855
142	0x3c6d2efa	0.014476532
143	0x3e53aa4d	0.20670433
144	0x3abf8105	0.0014610594
145	0x3e077a4a	0.13230243
146	0xbddf8ede	-0.10915922
147	0x3dc6b481	0.09702397
148	0x3dab20e6	0.08355884
149	0x3c8e1748	0.017345086
150	0xbd85492b	-0.06508096
151	0x3d932d2f	0.071863525
152	0x3ded6c79	0.11592955
153	0x3c099a4e	0.0083986055
154	0x3dc2d4e2	0.095132604
155	0xbe03cfd9	-0.12872256
156	0x3d6423b7	0.055698123
157	0x3d9f0ff5	0.077667154
158	0xbe02ec15	-0.1278537
159	0x3d81d7dd	0.06340001
160	0xbdba9bfc	-0.09111783
161	0x3ceb9c38	0.028761014
162	0x3db8864f	0.09009992
163	0xbd7a09d6	-0.061044537
164	0x3e05a7b1	0.1305225
165	0xbdd3092f	-0.10304486
166	0x3dccaf9d	0.09994433
167	0x3deb287c	0.11482331
168	0x3c80811c	0.015686564
169	0xbe31043f	-0.17286776
170	0xbdfbc0af	-0.12292611
171	0xbe2c0645	-0.16799267
172	0xbe6e409b	-0.23266833
173	0xbe3e6854	-0.18594486
174	0x3cd70618	0.026248023
175	0xbe78387a	-0.24240294
176	0x3d868555	0.065684
177	0xbe690ed5	-0.22759564
178	0x3c61d0d9	0.013782703
179	0xbe66e082	-0.2254658
180	0x3bbbe19f	0.0057336832
181	0x3d11cf3e	0.035598032
182	0xbe27e25a	-0.1639494
183	0xbdd80c11	-0.105491765
184	0x3d5e14d6	0.05421909
185	0xbe2b1b90	-0.16709733
186	0xbe274a11	-0.16336848
187	0xbdc20e26	-0.09475355
188	0xbe1f132b	-0.15534656
189	0xbd7f7856	-0.06237062
190	0xbe222e15	-0.15837891
191	0xbded0222	-0.115726724
192	0xbdd2205f	-0.102600805
193	0x3d374462	0.04474295
194	0xbdb42481	-0.08796025
195	0xbde5dba9	-0.112235375
196	0xbe4aabe5	-0.19792135
197	0xbe95e972	-0.29279667
198	0xbe10bfc7	-0.14135657
199	0x3d05b7ca	0.032645978
200	0xbd2f8b51	-0.04285747
201	0xbd193f72	-0.03741402
202	0xbcffd40a	-0.031229038
203	0x3d1b35ad	0.037892986
204	0xbe43dc88	-0.19127095
205	0xbdfb47c9	-0.12269551
206	0xbe196587	-0.14980136
207	0xbe04d8ec	-0.12973374
208	0x3db82cba	0.08992906
209	0x3d04d3ab	0.032428425
210	0x3d562ff6	0.052291833
211	0x3ceca5dc	0.028887682
212	0x3b06801a	0.0020523132
213	0xbdf1d8de	-0.11808942
214	0x3dad9c37	0.08477061
215	0xbda10a31	-0.07863272

conv_block.conv2d1.bias f4 [6]
0	0x3dd5268d	0.104077436
1	0x3df1f3fe	0.11814116
2	0xbe682fa1	-0.22674419
3	0x3dc0f288	0.09421259
4	0x3c4fde94	0.012687344
5	0x3e41e1f6	0.18933854

conv_block.batch_norm.weight f4 [6]
0	0x3f5f44b4	0.8721421
1	0x3f5bf7fd	0.85925275
2	0x3f95c399	1.1700317
3	0x3f5bdf50	0.8588762
4	0x3f59e17a	0.85109675
5	0x3f82928f	1.0200976

conv_block.batch_norm.bias f4 [6]
0	0xbdc8923f	-0.09793519
1	0xbd1bc063	-0.03802527
2	0xbd1c9431	-0.038227264
3	0xbd270948	-0.040780336
4	0xbdb7ed53	-0.08980813
5	0xbd15f5db	-0.03661142

conv_block.batch_norm.running_mean f4 [6]
0	0x3dd52692	0.10407747
1	0x3df1f403	0.1181412
2	0xbe682fa6	-0.22674426
3	0x3dc0f28c	0.09421262
4	0x3c4fde90	0.01268734
5	0x3e41e1f2	0.18933848

conv_block.batch_norm.running_var f4 [6]
0	0x00000004	6e-45
1	0x00000004	6e-45
2	0x00000004	6e-45
3	0x00000004	6e-45
4	0x00000004	6e-45
5	0x00000004	6e-45

conv_block.conv2d2.weight f4 [16, 6, 6, 6]
0	0xbd0ced50	-0.034406006
1	0xbd886405	-0.06659702
2	0x3cb1ea40	0.021718144
3	0xbd093d00	-0.03350544
4	0x3a84371d	0.0010087226
5	0x3d024a1f	0.03180897
6	0xbd7ab013	-0.061203074
7	0x3d22b8b5	0.03972693
8	0x3d20c956	0.03925451
9	0xbd40d2ea	-0.047076143
10	0xbb2a1dbc	-0.0025957664
11	0xbd23fb8f	-0.040034827
12	0x3d4857c9	0.048911843
13	0xbd720f0e	-0.05909639
14	0x3ca531c4	0.020165332
15	0x3bc1010c	0.0058900174
16	0xbd6ce032	-0.057830997
17	0x3d4d2c15	0.050090868
18	0x3b0d8d03	0.0021598942
19	0x3a0b23ec	0.0005307782
20	0x3ced4725	0.028964588
21	0xbd2ff74e	-0.042960458
22	0xbd9bf824	-0.076156884
23	0xbd783972	-0.06060166
24	0x3c8d852f	0.017275421
25	0xbc692157	-0.01422914
26	0x3b209907	0.0024505274
27	0x3cec94a5	0.028879473
28	0xbd015781	-0.03157759
29	0xbb9258ce	-0.0044661527
30	0x3d4eaafb	0.05045603
31	0xbda1ad23	-0.07894351
32	0xbbc709cb	-0.0060741655
33	0xbcde5525	-0.02714021
34	0xbd162e33	-0.036665153
35	0x3cf6e3b4	0.030137874
36	0xbd531b14	-0.051539496
37	0xbc8097fd	-0.015697474
38	0x3d87ea94	0.06636539
39	0xbcf27d23	-0.029600685
40	0x3d58fba0	0.052974343
41	0xbb8bda7b	-0.0042679883
42	0x3d80484a	0.06263788
43	0x3c30486d	0.010759455
44	0x3c895fa9	0.016769247
45	0xbd14dead	-0.036345173
46	0x3d4301fd	0.047609318
47	0xbcf0aed6	-0.029380243
48	0x3d87c0a2	0.06628539
49	0x3d59b508	0.05315116
50	0x3baca0b6	0.0052681817
51	0xbc01a5e0	-0.007913083
52	0xbd12dba2	-0.03585399
53	0xbc014f58	-0.007892452
54	0xbd51068d	-0.051031638
55	0x3c1de614	0.009637374
56	0xbcf2126f	-0.029549805
57	0xbb322ab0	-0.0027186088
58	0xbd61951a	-0.055073835
59	0x3af2ca4c	0.0018523424
60	0xbd1e2deb	-0.03861801
61	0x3d878d78	0.0661878
62	0x3cd4f8ea	0.025997598
63	0xbd5e4631	-0.05426616
64	0xbc3efd33	-0.011657047
65	0xbc28f6ff	-0.010312795
66	0xbc43d5ee	-0.01195286
67	0x3d5574ae	0.052113228
68	0xbd678c50	-0.056530297
69	0x3d5bd55c	0.053670272
70	0xbc7d536d	-0.015461785
71	0x3d282214	0.041048124
72	0xbcdce893	-0.026966369
73	0xbdd80077	-0.10546964
74	0xbdd360c4	-0.10321191
75	0xbde410cb	-0.111360155
76	0xbe1252f1	-0.14289452
77	0xbe1dc6c5	-0.15407856
78	0xbd357d63	-0.04430903
79	0xbddf2b31	-0.1089691
80	0xbde9190c	-0.113817304
81	0xbd889d50	-0.0667063
82	0xbe1aaaa7	-0.15104161
83	0xbe24759a	-0.16060486
84	0xbdf74582	-0.120738044
85	0xbe139c02	-0.14414981
86	0xbd4692a4	-0.04847969
87	0xbe2bed88	-0.1678983
88	0xbd868334	-0.06567994
89	0xbd222e0d	-0.0395947
90	0xbd844889	-0.064591475
91	0xbdd73a56	-0.105091736
92	0xbe170c4a	-0.14750782
93	0xbdcb2c4e	-0.0992056
94	0xbe33dc20	-0.1756444
95	0xbd5498a7	-0.051903393
96	0xbca1b2ad	-0.01973852
97	0xbce1d6c5	-0.02756823
98	0xbe09805b	-0.1342787
99	0xbdb56bf1	-0.08858479
100	0xbe2acb7a	-0.16679183
101	0xbdf41e81	-0.11919881
102	0xbdca5503	-0.09879496
103	0xbd71758b	-0.05894999
104	0xbde0a6f5	-0.109693445
105	0xbdd98bb8	-0.10622352
106	0xbd686d10	-0.056744635
107	0xbd9bc94f	-0.07606756
108	0x3caa43b2	0.020784233
109	0x3d2e7478	0.042591542
110	0x3d9b4551	0.075815804
111	0x3d9bc5d1	0.0760609
112	0x3d628fa0	0.055312753
113	0x3ae98755	0.0017816821
114	0x3d10611a	0.035248853
115	0xbc875313	-0.016519105
116	0x3d4c424b	0.04986791
117	0x3da6748f	0.081277005
118	0xbcf21c85	-0.029554615
119	0xbc621c32	-0.013800668
120	0xbcd1a484	-0.025591142
121	0x3d85b19a	0.065280154
122	0xbd322545	-0.043492574
123	0x3c8a9d26	0.016920637
124	0x3d805dde	0.06267904
125	0x3ce91755	0.028453508
126	0x3d02b44f	0.031910237
127	0xbd5ef866	-0.05443611
128	0xbd41db5b	-0.047328334
129	0x3d1333ec	0.03593819
130	0xbd10501e	-0.035232656
131	0xbcf45569	-0.029825883
132	0xbd3d733e	-0.04625248
133	0x3d53c52f	0.05170172
134	0x3d4cb75d	0.049979556
135	0x3d91c879	0.07118315
136	0x3cf840fc	0.030304424
137	0x3c858684	0.016299494
138	0x3d7ba210	0.06143385
139	0x3cb8bc94	0.022550859
140	0xbbdf63cf	-0.006817318
141	0x3c0c0973	0.008547175
142	0x3cd41a53	0.025891459
143	0xba9c4958	-0.0011923714
144	0x3d4f9ede	0.050688617
145	0xbc9c4a01	-0.019078257
146	0x3d956d32	0.07296218
147	0xbd3d996b	-0.04628889
148	0xbaadc760	-0.0013258271
149	0xbcc23187	-0.023705257
150	0x3d662906	0.056191467
151	0x3d4fd3cd	0.0507391
152	0xbd2d58e9	-0.04232112
153	0xbce4afea	-0.027915914
154	0x3b0ddba1	0.0021645802
155	0xbd371e3a	-0.04470656
156	0x3ca4d29c	0.020119958
157	0x3d186534	0.03720589
158	0x3ca3cbe0	0.019994676
159	0xbcc6ee64	-0.024283595
160	0x3bdfff85	0.00683588
161	0x3d90e897	0.07075613
162	0x3d689d3c	0.056790575
163	0x3c8b30f2	0.016991112
164	0xbc5d5a2a	-0.013510266
165	0x3bee0201	0.0072634225
166	0x3d8dbdd3	0.06920972
167	0x3cce0d72	0.025152896
168	0x3cb752d9	0.022378372
169	0x3d8e7d8d	0.06957541
170	0x3d5706a1	0.052496556
171	0x3d584d94	0.05280836
172	0xbc5c2feb	-0.013439159
173	0x3d661bee	0.05617898
174	0xbcf40fb3	-0.029792642
175	0xbc2f7b74	-0.010710586
176	0xbcf68439	-0.030092346
177	0x3d8010d2	0.06253208
178	0x3d92eeca	0.07174452
179	0xbc89d69a	-0.016825963
180	0xbd0c7805	-0.034294147
181	0xbdb57666	-0.08860473
182	0xbe046e62	-0.12932733
183	0xbd8e721f	-0.069553606
184	0xbc5190c0	-0.012790859
185	0xbd59c199	-0.053163145
186	0xbcdd043e	-0.026979562
187	0xbe08ad8d	-0.13347454
188	0xbd536071	-0.051605646
189	0xbdb56613	-0.0885736
190	0xbd733ce3	-0.059384238
191	0xbe11fa5e	-0.14255664
192	0xbcfd5bdb	-0.03092759
193	0xbd7f0074	-0.06225629
194	0xbdeee75a	-0.116652206
195	0xbd8d1d4a	-0.06890352
196	0xbcbb5cbb	-0.022871366
197	0xbc4997b4	-0.012304235
198	0xbcb95feb	-0.022628745
199	0xbdd6dc54	-0.10491243
200	0xbda42be6	-0.080161855
201	0xbcdd3fc4	-0.027007945
202	0xbcb8d042	-0.022560243
203	0xbe083cc7	-0.13304435
204	0xbd0e36ab	-0.034720104
205	0xbdd9c350	-0.10632956
206	0xbda614bb	-0.08109423
207	0xbdafc777	-0.08582967
208	0xbd721184	-0.059098735
209	0xbd7d761c	-0.061880216
210	0xbd1d7cea	-0.038449205
211	0xbdc58c9a	-0.09645958
212	0xbd22de92	-0.03976304
213	0xbda756be	-0.08170842
214	0xbd53ed9a	-0.051740266
215	0xbd974238	-0.07385677
216	0xbb1eb664	-0.00242176
217	0x3d89b833	0.06724586
218	0x3d50e008	0.050994903
219	0xbc441500	-0.011967897
220	0x3db5c3c9	0.08875234
221	0x38e258b4	0.00010793042
222	0x3d51db3f	0.05123448
223	0x3d49fd55	0.049313862
224	0x3caf7be0	0.021421373
225	0x3db968da	0.09053202
226	0x3d1057b3	0.035239886
227	0x3d2faaf2	0.042887636
228	0xba10da9b	-0.0005525739
229	0x3d9eca90	0.077534795
230	0xbcb46078	-0.022018656
231	0xbce6269b	-0.02809458
232	0xbcfab0de	-0.030601915
233	0x3d07bfb8	0.03314182
234	0x3cfdd771	0.03098652
235	0xbc2a0f5a	-0.010379637
236	0xbccbe671	-0.024890156
237	0x3c2d46c6	0.010575956
238	0xbd0c874d	-0.03430872
239	0x3d764f53	0.060134243
240	0x3ba349d8	0.004983168
241	0x3dbd39e1	0.09239555
242	0x3d6e9177	0.058244195
243	0x3d1a0333	0.037600707
244	0x3d2f105f	0.042740222
245	0xbd140360	-0.03613603
246	0x3ceb2827	0.02870567
247	0x3c1eab55	0.009684403
248	0x3da7c015	0.081909336
249	0x3d4ef326	0.050524853
250	0x3d254c0b	0.040355723
251	0x3d033943	0.03203703
252	0x3d55de19	0.052213762
253	0x3b22d87e	0.0024848278
254	0x3c9a1abf	0.018811582
255	0x3d82919c	0.06375429

conv_block.conv2d2.bias f4 [16]
0	0x3cfb71de	0.030693945
1	0xbc45face	-0.012083722
2	0x3d97fe5e	0.074215636
3	0x3c2fab1d	0.010721949
4	0xbc47aefd	-0.012187717
5	0x3ca0623e	0.019578096
6	0x3c6603f9	0.014039033
7	0xbcc4389f	-0.02395278
8	0x3d7dfe5d	0.062010158
9	0xbd52bf7c	-0.051452145
10	0x3d03b05a	0.032150604
11	0x3d606b1c	0.054789647
12	0xbcac6c0e	-0.021047618
13	0xbcfb3470	-0.030664653
14	0x3d4b6f5e	0.049666755
15	0x3dac7285	0.0842028

bottle_neck.bottle_neck.weight f4 [8, 16, 1, 1]
0	0x3e0313e6	0.1280056
1	0xbd22a90e	-0.039712004
2	0x3e719633	0.23592453
3	0x3d9d3e6e	0.07677923
4	0xbe2b574b	-0.16732518
5	0x3d471652	0.04860527
6	0xbd9dbee0	-0.07702422
7	0xbd58599e	-0.05281984
8	0x3d850271	0.06494606
9	0xbd1fa92d	-0.038979698
10	0xbd0a8b30	-0.033824146
11	0xbd323d28	-0.043515354
12	0xbe298b07	-0.16556941
13	0xbe2b2a86	-0.1671544
14	0x3e54fe77	0.20800196
15	0x3dfcdda1	0.1234696
16	0x3e171dcd	0.14757462
17	0x3e1d9a4a	0.15390888
18	0x3e10a9b6	0.1412724
19	0x3df306be	0.1186652
20	0x3e6757f2	0.22592142
21	0x3dc4fb94	0.09618297
22	0x3e2c5bbb	0.16831867
23	0x3e5594d8	0.2085756
24	0xbe7b5252	-0.24543121
25	0xbe403f89	-0.18774237
26	0xbda6c6b9	-0.08143372
27	0xbe1a3437	-0.15058981
28	0xbc50f86b	-0.01275454
29	0x3bda8f80	0.0066699386
30	0xbe559cf2	-0.20860651
31	0xbdd64588	-0.10462481
32	0xbb6aaa15	-0.0035806943
33	0x3e3e320d	0.1857378
34	0x3dccb8f5	0.09996215
35	0xbbbcb349	-0.005758677
36	0x3e63e3fa	0.22254935
37	0xbcfb728c	-0.030694269
38	0x3e1c5eec	0.15270585
39	0xbd2dddd9	-0.0424479
40	0x3e08e212	0.13367489
41	0xbd181346	-0.037127756
42	0x3d9b8808	0.07594305
43	0x3da8a1fb	0.0823402
44	0x3d5c1a70	0.05373615
45	0x3e526294	0.20545417
46	0xbe3a3a2c	-0.18186253
47	0x3e07e621	0.13271381
48	0x3d7389aa	0.05945746
49	0xbd378b92	-0.04481084
50	0x3ccd8c93	0.025091445
51	0x3d28a2fb	0.041171055
52	0xbde0b631	-0.1097225
53	0xbe35df38	-0.17760932
54	0xbd0e1995	-0.034692366
55	0xbd04d4a0	-0.032429338
56	0xbea1e9f1	-0.31623796
57	0x3e0c8c52	0.13725403
58	0x3cca4744	0.024692185
59	0xbe59b380	-0.2125988
60	0xbace5798	-0.0015742658
61	0x3df4b385	0.11948303
62	0xbd74650d	-0.059666682
63	0xbd3033f9	-0.043018315
64	0x3d942cee	0.07235132
65	0x3d65598c	0.0559936
66	0x3da0c7cb	0.078506075
67	0x3e379511	0.17927958
68	0xbe642d10	-0.22282815
69	0xbe27dfde	-0.16393992
70	0x3e76b1d1	0.24091269
71	0xbe07096b	-0.13187186
72	0x3b05e1f3	0.0020428866
73	0xbe0c1b9a	-0.13682404
74	0x3e0d9409	0.13826002
75	0x3e40f7ea	0.18844572
76	0x3dcfb3d3	0.101417206
77	0xbe451239	-0.19245233
78	0xbe229735	-0.15877993
79	0xbe839fb9	-0.25707796
80	0x3caeb4ef	0.02132651
81	0x3e07524d	0.13214989
82	0xbcbc61f6	-0.02299593
83	0xbccb5206	-0.024819385
84	0x3be4a355	0.0069774785
85	0xbd5eecc3	-0.054425012
86	0x3d350123	0.044190537
87	0x3d1485e0	0.036260486
88	0x3ca0d7fd	0.019634241
89	0xbe0327a0	-0.12808084
90	0xbe302871	-0.17202927
91	0xbd57c756	-0.052680336
92	0x3da72fb2	0.08163394
93	0x3dc27a8b	0.094960295
94	0x3e0c78c2	0.1371794
95	0xbd5e3468	-0.054249197
96	0xbe368a82	-0.17826274
97	0xbe6895f8	-0.22713459
98	0xbc2aaa0a	-0.010416517
99	0x3d89c3d8	0.06726807
100	0x3bf25d22	0.007396356
101	0x3d22aea1	0.03971732
102	0xbe1ec1b6	-0.15503582
103	0x3d9b9e3f	0.075985424
104	0x3dc3c766	0.095595166
105	0xbdbbe216	-0.09173982
106	0xbe0e876d	-0.13918848
107	0x3d0dceb9	0.034620974
108	0x3d887eec	0.066648334
109	0xbbbd3e2b	-0.0057752333
110	0x3dccf19c	0.10007021
111	0x3e19fd2b	0.15037982
112	0xbe35ba9d	-0.17746969
113	0x3e2e6ce1	0.17033722
114	0x3bb64f65	0.005563664
115	0xbc268727	-0.010164059
116	0x3deb4553	0.11487832
117	0xbda1967b	-0.0789003
118	0xbd99a331	-0.075018294
119	0xbcd2f719	-0.025752591
120	0x3d21b4ba	0.039478995
121	0x3e8f53d5	0.27993646
122	0xbd603e25	-0.054746766
123	0xbe09c606	-0.13454446
124	0xbd36c81f	-0.044624444
125	0x3e3d2bd5	0.18473752
126	0xbe81b082	-0.25329977
127	0xbe6323ee	-0.22181675

bottle_neck.bottle_neck.bias f4 [8]
0	0x3dcab2a9	0.09897358
1	0x3c6de8f6	0.014520874
2	0x3e761868	0.24032748
3	0x3dc46c20	0.09590936
4	0xbd86bc5f	-0.06578898
5	0xbe33e2e9	-0.17567028
6	0x3e554a96	0.20829234
7	0xbe4e06cf	-0.20119785

res_blocks.id_block.0.weight f4 [8, 8, 3, 3]
0	0xbda03c7d	-0.07824037
1	0x3e2124ce	0.15736696
2	0xbb05ce02	-0.002041698
3	0x3e254cc9	0.16142572
4	0x3ea6c271	0.32570222
5	0x3e5821ee	0.21106693
6	0xbe848b1a	-0.25887376
7	0xbe447476	-0.19185051
8	0xbe74e712	-0.23916271
9	0x3cfc672d	0.030810917
10	0x3ce2c1f4	0.027680375
11	0x3d1e5ad5	0.038660843
12	0xbe001f1b	-0.12511866
13	0xbddc3295	-0.10751835
14	0x3ca7a2dd	0.020463401
15	0xbd501a58	-0.050806373
16	0x3ababbf1	0.0014246685
17	0x3dad3ad9	0.0845849
18	0xbd7bc21e	-0.06146442
19	0xbe05d011	-0.13067652
20	0xbd450463	-0.048099887
21	0xbdd79d23	-0.10528018
22	0xbd8c63cf	-0.068549745
23	0xbd54f51a	-0.05199156
24	0xbe10b352	-0.14130905
25	0xbd8d5907	-0.06901746
26	0xbd8d4580	-0.06898022
27	0x3df78086	0.12085061
28	0xbe1c7b5e	-0.15281436
29	0x3d8f104b	0.069855295
30	0x3dbc9cf9	0.09209628
31	0xbe3abb53	-0.18235521
32	0xbe046566	-0.12929305
33	0x3d7f7026	0.062362812
34	0xbe0f7607	-0.14009868
35	0xbe2732e6	-0.1632801
36	0x3c7eac61	0.015544028
37	0x3d8e15d8	0.0693776
38	0xbdd760b3	-0.10516491
39	0x3e3ad24c	0.18244284
40	0x3da3539a	0.0797493
41	0x3d49ed93	0.049298834
42	0xbd0e6ef3	-0.03477378
43	0x3d2a7e90	0.041624606
44	0x3c933281	0.017968418
45	0x3d2aee2c	0.041731045
46	0xbbdc21a4	-0.0067178775
47	0x3d1239b0	0.035699546
48	0xbca4ade2	-0.020102445
49	0xbe0c47a4	-0.13699204
50	0xbd919b98	-0.07109755
51	0x3e85ab86	0.26107424
52	0xbdca1f24	-0.09869221
53	0xbd128ab7	-0.03577682
54	0xbd923351	-0.07138694
55	0x3d886aaa	0.066609696
56	0x3da7e0fc	0.08197209
57	0xbe0414cb	-0.12898557
58	0xbe49e2d6	-0.19715437
59	0xbdc9c7db	-0.098525725
60	0xbd7d6ad3	-0.061869454
61	0xbe4699f7	-0.1939467
62	0xbdb134e3	-0.086526655
63	0xbd6ef27a	-0.058336712
64	0x3d90adc7	0.070643954
65	0xbcefaba0	-0.029256642
66	0xbdc4ae8a	-0.09603603
67	0xbd8abf79	-0.06774802
68	0x3a4b0519	0.0007744595
69	0x3dfaa7bf	0.12239026
70	0x3e608506	0.21925744
71	0x3e6a208a	0.22863975
72	0x3d8b4baf	0.06801545
73	0x3ea82d6c	0.32847154
74	0x3e856cc8	0.26059556
75	0xbe11b5be	-0.14229485
76	0xbe837487	-0.2567484
77	0xbe13bd32	-0.14427641
78	0xbd44129e	-0.047869317
79	0x3e0e3622	0.13887838
80	0xbd5f3162	-0.054490454
81	0xbe02a5e1	-0.1275859
82	0xbc41d2d7	-0.011830053
83	0x3c727a29	0.014799633
84	0x3d27e721	0.040991906
85	0x3de40f17	0.11135691
86	0x3da74a22	0.081684366
87	0xbe25e825	-0.16201837
88	0x3d92f33c	0.071752995
89	0xbdb18079	-0.08667082
90	0x3e0e8a7f	0.1392002
91	0x3dbb352d	0.09141002
92	0x3e51531e	0.20441863
93	0x3d859916	0.065233395
94	0x3e61771a	0.2201809
95	0x3e627744	0.22115809
96	0xbd397413	-0.045276713
97	0xbd4038af	-0.046929058
98	0x3e124e2a	0.1428763
99	0xbc00b525	-0.007855688
100	0x3d565b44	0.05233313
101	0x3d85f2f3	0.065404795
102	0x3e1655d8	0.14681184
103	0x3e3de10c	0.1854288
104	0x3e9e8872	0.30963475
105	0x37e13ea3	2.6851258e-05
106	0xbdc3817d	-0.09546182
107	0xbda79cb5	-0.08184186
108	0x3bfa4ef6	0.0076388074
109	0x3db54735	0.08851472
110	0xbd83adcb	-0.06429633
111	0xbe878c2f	-0.2647414
112	0xbe88c0ba	-0.2670954
113	0xbe1c0db2	-0.152396
114	0x3c904b8e	0.017614152
115	0xbdf4b301	-0.11948205
116	0xbc9dc235	-0.019257644
117	0xbe07e5f2	-0.13271311
118	0xbcbcf3e2	-0.023065511
119	0xbdbcfd01	-0.09227944
120	0x3e18bcfa	0.14915839
121	0x3dd1ee15	0.10250489
122	0xbd224105	-0.03961279
123	0xbd8974b5	-0.06711713
124	0xbdc0a726	-0.09406881
125	0x3ca38b2b	0.019963821
126	0x3c163012	0.009166734
127	0x3e207507	0.15669642
128	0x3e392b9c	0.18083042
129	0x3e103622	0.1408315
130	0x3e44023e	0.1914148
131	0x3e66eb74	0.22550756
132	0xbd7bb5ee	-0.0614528
133	0x3cdca1c1	0.026932599
134	0xbd7e70ce	-0.062119298
135	0xbdb57ea8	-0.088620484
136	0xbddbc285	-0.10730461
137	0xbe3e10dc	-0.18561119
138	0x3de17e9a	0.110104755
139	0xbdec623c	-0.11542174
140	0x3bfc0390	0.0076908544
141	0x3e1b1bb5	0.15147288
142	0xbd62e2c4	-0.05539204
143	0x3d2d4ef1	0.042311613
144	0x3d1c3f3b	0.03814624
145	0x3e03e8b1	0.12881733
146	0xbc25dee5	-0.010123943
147	0xbe00f046	-0.12591657
148	0x3e8b364b	0.2718986
149	0x3e0d01f5	0.13770278
150	0xbe3c4c3d	-0.18388458
151	0x3e48425d	0.19556566
152	0xbc362640	-0.011117518
153	0xbdca86bc	-0.0988898
154	0x3cc4a00d	0.0240021
155	0xbd1dcbfc	-0.038524613
156	0xbdff372a	-0.124616936
157	0x3e07e9ed	0.1327283
158	0xbd8dd677	-0.069256715
159	0xbd60f8ab	-0.05492465
160	0x3d26e3f6	0.040744744
161	0x3a682c76	0.0008856723
162	0xbd8e546f	-0.06949698
163	0x3dd475ed	0.10374055
164	0xbd4550b7	-0.04817268
165	0xbd7b33a5	-0.06132855
166	0x3d631a86	0.055445217
167	0xbca32468	-0.01991482
168	0x3d897b61	0.06712986
169	0x3e967510	0.29386187
170	0x3dfc5b42	0.123220935
171	0x3c11a155	0.008888562
172	0xbcf57c6e	-0.02996656
173	0xbdf2559b	-0.11832734
174	0x3d8c02a1	0.06836439
175	0x3cf9857b	0.030459156
176	0xbd1496f1	-0.03627676
177	0x3ec021c4	0.3752576
178	0x3e85ea09	0.26155117
179	0x3e53ff1b	0.20702784
180	0x3defcd4c	0.11709079
181	0x3e1ad829	0.15121521
182	0xbd85fc3a	-0.06542249
183	0x3d921d0b	0.07134446
184	0x3d026683	0.031836044
185	0xbc8fbc35	-0.017545799
186	0xbdc6ab39	-0.09700627
187	0xbdc9f78c	-0.09861669
188	0xbdb24b58	-0.08705777
189	0x3e65a51a	0.22426262
190	0xbc91f6b2	-0.017817829
191	0xbcdb129d	-0.026742274
192	0xb9633f90	-0.00021672086
193	0xbe1f6347	-0.15565215
194	0x3d2cd3ec	0.042194292
195	0x3dca3cd5	0.09874884
196	0xbdcb4c51	-0.099266656
197	0xbde15c66	-0.11003952
198	0xbd65389f	-0.0559622
199	0x3d83127c	0.0640001
200	0x3cfea966	0.031086635
201	0xbdca2c93	-0.09871783
202	0xbd273f4d	-0.040831853
203	0x3d0a52f8	0.03377053
204	0x3ea70680	0.32622147
205	0x3f1477f0	0.5799551
206	0x3e48c279	0.19605435
207	0x3b0b1966	0.0021224855
208	0xbda52fb1	-0.08065737
209	0x3d1ca544	0.038243547
210	0x3d8fd7a6	0.070235536
211	0x3c697aa8	0.014250435
212	0xbc951540	-0.01819861
213	0xbda5ef10	-0.08102238
214	0xbe5186ff	-0.20461653
215	0xbd5bc35a	-0.0536531
216	0x3d29afa2	0.041427262
217	0x3dabf930	0.08397138
218	0x3c0de9a0	0.008661658
219	0xbe547edb	-0.20751517
220	0xbe324405	-0.1740876
221	0xbe3e5116	-0.1858562
222	0x3e678c5f	0.22612141
223	0x3dbb6453	0.09149995
224	0x3d5e9cd2	0.054348774
225	0xbdf378ed	-0.11888299
226	0xbdaa1b33	-0.08305969
227	0xbe5ec89b	-0.21756212
228	0x3ddf1eb7	0.1089453
229	0xbd5ae450	-0.053440392
230	0x3d50a9ec	0.0509433
231	0xbc3715b9	-0.011174613
232	0xbdb59849	-0.08866937
233	0xbd20eaad	-0.039286304
234	0xbc894728	-0.016757563
235	0xbdba7f1b	-0.09106275
236	0x3d4a7ec4	0.0494373
237	0x3e046245	0.12928112
238	0x3d81cd5b	0.063379966
239	0x3d6cd46f	0.05781978
240	0x3e28e396	0.16493067
241	0x3d3d0972	0.046151586
242	0xbdb811c5	-0.08987764
243	0xbdddfef9	-0.10839648
244	0xbd9f27be	-0.07771252
245	0xbe41d2cc	-0.18928069
246	0x3e79cab0	0.24393725
247	0x3e7a38ad	0.24435683
248	0x3e23551d	0.15950437
249	0x3e0f1adb	0.13975088
250	0x3cd5ecc4	0.026113875
251	0x3c2fd491	0.010731832
252	0x3df7304c	0.12069759
253	0x3e084bf4	0.13310224
254	0x3e0393f6	0.12849411
255	0xbdadd921	-0.0848868

res_blocks.id_block.0.bias f4 [8]
0	0x3d66aa1c	0.056314573
1	0xbddafbc2	-0.1069255
2	0x3d2f5f7a	0.042815663
3	0x3dafc2a6	0.08582048
4	0xbd1cb4a0	-0.038258195
5	0xbcfa9b31	-0.03059158
6	0xbe4a36e0	-0.19747496
7	0xbe51af3d	-0.20477004

res_blocks.id_block.1.weight f4 [8]
0	0x3f26d714	0.65171933
1	0x3f05aae7	0.522139
2	0x3f2b793f	0.6698188
3	0x3f1b8e82	0.60764325
4	0x3ed64557	0.41849777
5	0x3f2ca8d4	0.6744511
6	0x3f28add4	0.6589024
7	0x3ef5f210	0.48036242

res_blocks.id_block.1.bias f4 [8]
0	0xbd083e25	-0.03326239
1	0xbe9854a5	-0.2975208
2	0xbda4615f	-0.080263846
3	0xbe6ffe7e	-0.23436925
4	0xbe3d827e	-0.1850681
5	0xbece036c	-0.40236986
6	0xbde2140c	-0.1103898
7	0xbe83f7bf	-0.25774953

res_blocks.id_block.1.running_mean f4 [8]
0	0xbe3e48e8	-0.18582499
1	0x3e493bfe	0.19651791
2	0x3e7070cc	0.23480529
3	0x3eb6b9e2	0.35688692
4	0xbe37255d	-0.17885347
5	0xbe387168	-0.18012011
6	0x3d50edc6	0.05100801
7	0xbee3a87a	-0.44464475

res_blocks.id_block.1.running_var f4 [8]
0	0x3f298aa1	0.66227156
1	0x3f6b4bec	0.9191272
2	0x3f588571	0.84578615
3	0x3f563409	0.8367315
4	0x3ed4ad14	0.41538298
5	0x3f3a966d	0.7288578
6	0x3f12bf8f	0.57323545
7	0x3ec02331	0.3752685

root.weight f4 [168, 392]
0	0xbe24c34b	-0.16090123
1	0xbdfb7c4c	-0.12279567
2	0xbe18e0a3	-0.14929442
3	0xbdff008f	-0.124512784
4	0xbe0b3ae6	-0.13596687
5	0xbdb87e50	-0.09008467
6	0xbe0c7b54	-0.13718921
7	0xbe801329	-0.25014618
8	0xbe4d4a3a	-0.20047846
9	0xbe1b5445	-0.15168865
10	0xbdf70dc2	-0.12063171
11	0xbe36fe7f	-0.1787052
12	0xbe0eea63	-0.13956599
13	0xbe40f23f	-0.1884241
14	0xbe7953e4	-0.24348408
15	0xbe43239b	-0.19056551
16	0xbddae773	-0.10688677
17	0xbe176b33	-0.14786987
18	0xbe1df0ee	-0.15423939
19	0xbe12939b	-0.1431412
20	0xbe0c7ef3	-0.13720302
21	0xbe6f67c1	-0.23379423
22	0xbdead924	-0.114671975
23	0xbdb95a02	-0.09050371
24	0xbe2c8585	-0.16847809
25	0xbdf455a6	-0.11930399
26	0xbe352b9d	-0.17692418
27	0xbe135478	-0.14387691
28	0xbe67368c	-0.22579402
29	0xbe143d4f	-0.14476512
30	0xbe2eb371	-0.17060639
31	0xbe166f84	-0.14690977
32	0xbe26ea19	-0.16300239
33	0xbe41d248	-0.18927872
34	0xbe272ea2	-0.16326383
35	0xbe78e38b	-0.24305551
36	0xbe0226be	-0.12710091
37	0xbdee8d21	-0.11648012
38	0xbdab2acc	-0.08357772
39	0xbdc83f57	-0.09777706
40	0xbe20d4e6	-0.15706214
41	0xbe62c107	-0.22143947
42	0xbe57be7f	-0.21068762
43	0xbe934b0a	-0.28768188
44	0xbe8fa486	-0.2805521
45	0xbea23299	-0.31679228
46	0xbe63af82	-0.2223492
47	0xbe8f4162	-0.2797957
48	0xbe860b66	-0.2618057
49	0xbdcb25a0	-0.09919286
50	0xbd7bd252	-0.061479874
51	0xbe114a71	-0.14188553
52	0xbe04690b	-0.12930696
53	0xbe1f9211	-0.15583064
54	0xbdcd1dbb	-0.10015436
55	0xbccabff7	-0.02474974
56	0xbe1da3fd	-0.15394588
57	0xbdeab170	-0.11459625
58	0xbd9c8b43	-0.076437496
59	0xbe039b18	-0.12852132
60	0xbd2e77f5	-0.04259487
61	0xbdc2c23b	-0.09509703
62	0xbd72b109	-0.059250865
63	0xbe0f68d5	-0.14004834
64	0xbd89a173	-0.06720247
65	0xbddf788e	-0.10911666
66	0xbd0a63b9	-0.03378651
67	0xbcb98c57	-0.022649927
68	0xbddcb2d1	-0.10776294
69	0xbd104f55	-0.035231907
70	0xbe028e7b	-0.12749664
71	0xbd90f042	-0.070770755
72	0xbdd10850	-0.102066636
73	0xbcdb7af4	-0.026792027
74	0xbda91e8f	-0.08257782
75	0xbdf51c47	-0.11968284
76	0xbd3610c9	-0.0444496
77	0xbdd7186c	-0.10502705
78	0xbd154323	-0.03644098
79	0xbdae165c	-0.085003585
80	0xbd7d8a31	-0.061899368
81	0xbdb90ef7	-0.090360574
82	0xbd772cd7	-0.060345497
83	0xbd8f2abc	-0.06990573
84	0xbe10d57b	-0.14143936
85	0xbdd3736b	-0.103247486
86	0xbd827cb8	-0.063714445
87	0xbd3268f9	-0.04355714
88	0xbd49ca47	-0.049265172
89	0xbd0e81e2	-0.034791835
90	0xbd88577b	-0.066573106
91	0xbdf68bd6	-0.1203839
92	0xbe1c2920	-0.15250063
93	0xbe14252e	-0.14467308
94	0xbe16a8ae	-0.14712784
95	0xbe174943	-0.14774041
96	0xbe3c9cd3	-0.18419199
97	0xbe2a38b8	-0.16623199
98	0xbe87b73b	-0.2650698
99	0xbe38b304	-0.18037039
100	0xbe282f36	-0.1642426
101	0xbe30e73a	-0.17275706
102	0xbe69c1dd	-0.22827859
103	0xbe5e3232	-0.21698835
104	0xbe3b7ef4	-0.18310148
105	0xbe382a0a	-0.17984787
106	0xbe4bff89	-0.19921698
107	0xbe39a02a	-0.18127504
108	0xbe06866d	-0.13137217
109	0xbe1da424	-0.15394646
110	0xbe6059f2	-0.21909311
111	0xbe2db4ad	-0.16963454
112	0xbe5f1364	-0.2178474
113	0xbe0b3037	-0.13592611
114	0xbe2171ef	-0.15766118
115	0xbe58618e	-0.21130964
116	0xbe42c14e	-0.19019052
117	0xbe25f09a	-0.16205063
118	0xbe5274f8	-0.20552433
119	0xbe817482	-0.252842
120	0xbe19c56a	-0.15016714
121	0xbe3ff043	-0.18743996
122	0xbe4ad56d	-0.19807978
123	0xbe2bdffe	-0.16784665
124	0xbe2e3feb	-0.1701657
125	0xbe4338f0	-0.19064689
126	0xbe87e317	-0.26540443
127	0xbe0ee7c8	-0.13955605
128	0xbe222782	-0.15835384
129	0xbdff3263	-0.124607824
130	0xbe0678d6	-0.13132033
131	0xbe58eb8b	-0.21183603
132	0xbe48318c	-0.1955015
133	0xbe775d43	-0.2415667
134	0xbe050849	-0.12991442
135	0xbe14b430	-0.14521861
136	0xbe45ba0d	-0.19309254
137	0xbe09339e	-0.13398597
138	0xbe2945e2	-0.16530564
139	0xbe51d869	-0.2049271
140	0xbe32c484	-0.17457777
141	0xbea16a09	-0.3152621
142	0xbe849506	-0.25894946
143	0xbe801a86	-0.25020236
144	0xbe9c9f40	-0.30590248
145	0xbe9e9e53	-0.30980167
146	0xbe82afa3	-0.25524625
147	0xbe05641f	-0.13026474
148	0xbe633c61	-0.22191001
149	0xbe200e10	-0.15630364
150	0xbe2e950a	-0.17049041
151	0xbe0c4f2f	-0.13702081
152	0xbe74bb1c	-0.23899502
153	0xbd835e9b	-0.06414529
154	0xbda8591f	-0.082201235
155	0xbd63a0a4	-0.05557312
156	0xbddc920d	-0.107700445
157	0xbe22e319	-0.15906943
158	0xbe0eec64	-0.13957363
159	0xbe34cffa	-0.17657462
160	0xbe3b3370	-0.1828134
161	0xbd9889f8	-0.074481905
162	0xbe1a75ae	-0.15083954
163	0xbdc673fb	-0.0969009
164	0xbdd9847a	-0.10620971
165	0xbe1c2061	-0.15246727
166	0xbdcd8b70	-0.10036361
167	0xbdf84016	-0.121215984
168	0xbdc8b0b3	-0.09799328
169	0xbd8feb04	-0.070272475
170	0xbda1fc62	-0.07909466
171	0xbdcf5875	-0.10124294
172	0xbdcef9d9	-0.101062484
173	0xbe35f388	-0.17768681
174	0xbe21bb86	-0.15794191
175	0xbe0795aa	-0.13240686
176	0xbdc701bf	-0.0971713
177	0xbe138556	-0.14406332
178	0xbdaeb308	-0.08530241
179	0xbe0ba829	-0.13638367
180	0xbdc7a5b1	-0.097484
181	0xbdc27b9a	-0.094962314
182	0xbdc4bc79	-0.09606261
183	0xbe1ed583	-0.15511136
184	0xbe2246ad	-0.15847273
185	0xbdd3d66a	-0.103436306
186	0xbe0938d1	-0.1340058
187	0xbdedd802	-0.11613466
188	0xbdfaacb1	-0.122399695
189	0xbe104901	-0.14090349
190	0xbe196838	-0.14981163
191	0xbe356039	-0.17712487
192	0xbe10df36	-0.14147648
193	0xbdca28ad	-0.098710395
194	0xbe082d15	-0.13298447
195	0xbdaedd9a	-0.08538361
196	0xbe2c8553	-0.16847734
197	0xbdedaa99	-0.116048045
198	0xbdc37f99	-0.09545822
199	0xbd8a17d1	-0.06742824
200	0xbe04bc54	-0.12962466
201	0xbd89cfcb	-0.067290865
202	0xbdab33ee	-0.08359514
203	0xbe163247	-0.14667617
204	0xbd72507c	-0.059158787
205	0xbd885b09	-0.066579886
206	0xbcd0c560	-0.02548474
207	0xbdad1b30	-0.08452451
208	0xbd363798	-0.044486612
209	0xbe0733a0	-0.13203287
210	0xbd8bef6f	-0.06832778
211	0xbd88fc8b	-0.06688794
212	0xbd372bc6	-0.04471948
213	0xbd8fff4f	-0.07031118
214	0xbdbd140e	-0.09232341
215	0xbdf0a3cc	-0.11749992
216	0xbda58314	-0.08081642
217	0xbdf9a13c	-0.12188956
218	0xbd9f6d72	-0.07784547
219	0xbe10db50	-0.14146161
220	0xbd824594	-0.06360927
221	0xbdb1030c	-0.08643159
222	0xbdeb4b36	-0.11488955
223	0xbdd00fe4	-0.10159281
224	0xbdd4646f	-0.10370719
225	0xbdbb36a7	-0.091412835
226	0xbd4093a9	-0.04701582
227	0xbdf4454a	-0.11927278
228	0xbdd8c3d8	-0.10584229
229	0xbdc6fbec	-0.09716019
230	0xbe0a59d9	-0.13510837
231	0xbde40703	-0.1113415
232	0xbe061d9d	-0.13097234
233	0xbdcd7cac	-0.10033545
234	0xbdc97781	-0.09837247
235	0xbd964d75	-0.073389925
236	0xbe085ad2	-0.13315895
237	0xbe0b2fe4	-0.13592488
238	0xbe572ec2	-0.2101393
239	0xbe69c853	-0.22830324
240	0xbe65a99f	-0.22427987
241	0xbe795e57	-0.24352394
242	0xbe6fa1cb	-0.23401563
243	0xbe858c15	-0.26083437
244	0xbe4492e5	-0.19196661
245	0xbd60ab18	-0.054850668
246	0xbe196276	-0.14978966
247	0xbda1276b	-0.078688465
248	0xbe01652c	-0.1263625
249	0xbdd1074f	-0.10206472
250	0xbe226877	-0.15860163
251	0xbdc91b69	-0.09819681
252	0xbe55b7da	-0.20870915
253	0xbd72291e	-0.059121244
254	0xbcf97f37	-0.030456169
255	0xbdc58491	-0.09644426

root.bias f4 [168]
0	0xbe745090	-0.23858857
1	0xbe88a455	-0.26687875
2	0xbe8e2f6e	-0.2777056
3	0xbe805dae	-0.25071472
4	0xbe9d70f4	-0.3075024
5	0xbe840a61	-0.25789168
6	0xbe8c87fe	-0.27447504
7	0xbe613d5e	-0.21996066
8	0xbe9aa0ac	-0.30200708
9	0xbe9891ba	-0.2979868
10	0xbe65cad6	-0.22440657
11	0xbe8a7a82	-0.2704659
12	0xbe98f8cf	-0.29877326
13	0xbe5c0b40	-0.21488667
14	0xbe85691d	-0.26056758
15	0xbe8336f9	-0.25627878
16	0xbe848d56	-0.2588908
17	0xbe7eecd1	-0.24895026
18	0xbe7c9c63	-0.24669032
19	0xbe917129	-0.28406647
20	0xbe908606	-0.28227252
21	0xbe33ac2c	-0.17546147
22	0xbe3342f7	-0.17506014
23	0xbe656934	-0.22403413
24	0xbe7ec56b	-0.24879996
25	0xbe55e604	-0.20888525
26	0xbe664a3f	-0.2248926
27	0xbe8694dc	-0.26285446
28	0xbe8a2f78	-0.2698934
29	0xbe3b714e	-0.18304941
30	0xbe5e6f52	-0.21722153
31	0xbe8a836c	-0.27053392
32	0xbe3a1103	-0.18170552
33	0xbe9e174c	-0.3087715
34	0xbe601c73	-0.21885853
35	0xbe9993ce	-0.2999558
36	0xbe3a8d4b	-0.18217961
37	0xbe86fda6	-0.26365393
38	0xbe63f54c	-0.22261542
39	0xbe639516	-0.2222484
40	0xbe8c0bd8	-0.27352786
41	0xbe70e0f7	-0.23523317
42	0xbe359041	-0.1773081
43	0xbe68eebf	-0.22747324
44	0xbe854bfd	-0.26034537
45	0xbe9ab60e	-0.30217022
46	0xbe61feb1	-0.22069813
47	0xbe612bb1	-0.21989323
48	0xbe85c590	-0.2612729
49	0xbe63093a	-0.22171488
50	0xbe820e3a	-0.2540148
51	0xbe967cfc	-0.2939223
52	0xbe9d406f	-0.3071322
53	0xbe1ebf44	-0.1550265
54	0xbe7cb776	-0.2467936
55	0xbe7cf01e	-0.24700972
56	0xbe6cd515	-0.2312816
57	0xbe60eaff	-0.21964644
58	0xbe6d2e1b	-0.23162119
59	0xbe67f270	-0.22651076
60	0xbe83ccb2	-0.25742108
61	0xbe8bd535	-0.27311102
62	0xbe8343c2	-0.25637633
63	0xbe9a114e	-0.30091327
64	0xbe533bdb	-0.20628302
65	0xbe362b0a	-0.17789856
66	0xbe595c27	-0.2122656
67	0xbe8a8ee4	-0.27062142
68	0xbe5d6f76	-0.2162455
69	0xbe8a1eb5	-0.26976553
70	0xbe8c5e0f	-0.2741551
71	0xbe72e826	-0.2372137
72	0xbe143797	-0.14474331
73	0xbe789d93	-0.2427886
74	0xbe320168	-0.17383349
75	0xbe44f055	-0.19232304
76	0xbe4a7d23	-0.19774298
77	0xbe8f1bd4	-0.2795092
78	0xbe9cbf84	-0.30614865
79	0xbe324114	-0.17407638
80	0xbe82de4e	-0.2556023
81	0xbe1d5c71	-0.15367295
82	0xbe94aa5d	-0.29036227
83	0xbe622110	-0.22082925
84	0xbe7462e4	-0.23865849
85	0xbe76136f	-0.24030851
86	0xbe86c496	-0.26321858
87	0xbe88cc88	-0.26718545
88	0xbe92d2eb	-0.28676543
89	0xbe6e4ef2	-0.23272303
90	0xbe83b694	-0.25725234
91	0xbe3bf3cd	-0.18354721
92	0xbe52119f	-0.20514534
93	0xbe8e979e	-0.2785005
94	0xbe8c5faf	-0.2741675
95	0xbe813528	-0.25235868
96	0xbe22d393	-0.15901022
97	0xbe978f2d	-0.29601422
98	0xbe70bd30	-0.2350967
99	0xbe8e2531	-0.2776275
100	0xbe40293e	-0.18765733
101	0xbe6ad699	-0.22933425
102	0xbeaf4d9b	-0.34238896
103	0xbe82d06c	-0.25549638
104	0xbe85ab47	-0.26107237
105	0xbe9b0036	-0.30273598
106	0xbe735a70	-0.23764968
107	0xbe7c74c2	-0.24653915
108	0xbe975050	-0.2955346
109	0xbe7e3ccc	-0.2482788
110	0xbe62da62	-0.22153619
111	0xbe6307ca	-0.2217094
112	0xbe704d1e	-0.23466918
113	0xbe629a0f	-0.22129081
114	0xbe9be29e	-0.30446333
115	0xbe26a316	-0.1627315
116	0xbe59472c	-0.21218556
117	0xbe70ae5f	-0.23504017
118	0xbe817013	-0.25280818
119	0xbe7206a0	-0.2363534
120	0xbe39eb9c	-0.18156284
121	0xbe91a676	-0.28447312
122	0xbe7055e6	-0.23470268
123	0xbe75ab13	-0.23991041
124	0xbe7c64c8	-0.2464782
125	0xbe6798bb	-0.22616856
126	0xbe864551	-0.2622476
127	0xbe3dcfb1	-0.18536259
128	0xbe3e4ad4	-0.18583232
129	0xbe7eb1a2	-0.24872449
130	0xbe96b306	-0.2943346
131	0xbe8c5119	-0.27405623
132	0xbe5e8f1d	-0.21734281
133	0xbe622cde	-0.22087428
134	0xbe41cc2e	-0.18925545
135	0xbe476bde	-0.19474742
136	0xbe6d2755	-0.23159535
137	0xbe6bd63d	-0.23030944
138	0xbe8b5025	-0.27209583
139	0xbe3aa2bf	-0.18226145
140	0xbe871a8c	-0.2638744
141	0xbe616c76	-0.22014031
142	0xbe8a3928	-0.26996732
143	0xbe7da12d	-0.24768515
144	0xbe877b24	-0.26461136
145	0xbe9a22dc	-0.3010472
146	0xbe9f69ff	-0.31135556
147	0xbe340ac0	-0.17582226
148	0xbe746e5c	-0.23870224
149	0xbe477561	-0.1947837
150	0xbe509d32	-0.20372465
151	0xbe7afa07	-0.2450944
152	0xbe8fd502	-0.280922
153	0xbe722c57	-0.23649727
154	0xbe467e3f	-0.19384097
155	0xbe888a49	-0.26668003
156	0xbe7eb57e	-0.24873921
157	0xbe9ce74c	-0.30645216
158	0xbeab4e1d	-0.33458033
159	0xbe6e2875	-0.2325762
160	0xbe8d31c3	-0.27577028
161	0xbea09413	-0.31362972
162	0xbe8bb6ea	-0.2728799
163	0xbe916aa5	-0.28401676
164	0xbea24e18	-0.31700206
165	0xbe715427	-0.23567258
166	0xbe9c7ff9	-0.30566385
167	0xbe71e636	-0.23622975

vowel.weight f4 [11, 392]
0	0xbcc1f2e7	-0.023675395
1	0xbd884915	-0.06654564
2	0xbb93a466	-0.004505682
3	0xbd36b401	-0.04460526
4	0x3c57c646	0.013169831
5	0xbcac9603	-0.021067625
6	0xbd93b349	-0.0721193
7	0xbd47e2ee	-0.0488004
8	0xbdb01c3a	-0.08599134
9	0xbd919609	-0.07108695
10	0xbd5d152c	-0.05397527
11	0x3c80cf38	0.01572381
12	0xbc98580f	-0.018596677
13	0xbdb51eec	-0.088437885
14	0xbd4ceec6	-0.0500324
15	0xbd8fc432	-0.07019843
16	0xbd869bc5	-0.065726794
17	0xbb3bac86	-0.0028636768
18	0xbd46d86b	-0.048546236
19	0x3c7afbc5	0.015318816
20	0xbd73f73d	-0.059561957
21	0x3b3a5965	0.002843463
22	0xbd035fcd	-0.032073785
23	0xbd5d5613	-0.054037165
24	0xbd0be2cc	-0.034151837
25	0xbcbd584a	-0.023113389
26	0xbd312d0a	-0.043255843
27	0x384cf680	4.886696e-05
28	0xbd86d02d	-0.06582675
29	0xbdb9060e	-0.09034358
30	0x3b6cbd91	0.0036123733
31	0xbb62642a	-0.0034544566
32	0x3ca3aa25	0.019978592
33	0xbd6c2b7a	-0.05765865
34	0x3c3d89ba	0.011568481
35	0xbd3ef801	-0.046623234
36	0xbd2802e6	-0.04101839
37	0xbd2a1c32	-0.041530795
38	0x3cdc8e99	0.026923465
39	0xbd356cb8	-0.044293135
40	0x3cabd39f	0.020974932
41	0xbb1220c1	-0.0022297355
42	0xbce73684	-0.028224237
43	0xbbbf2851	-0.0058336635
44	0xbd06b3cb	-0.032886308
45	0xbd85774c	-0.06516895
46	0xbca039b9	-0.019558774
47	0xbd01a732	-0.03165359
48	0xbbea6b91	-0.007153936
49	0x3c406ae9	0.011744239
50	0x3d8c5561	0.06852222
51	0x3d757a30	0.05993098
52	0x3cda8159	0.026673006
53	0xbc6518c5	-0.013982956
54	0x3d8b473c	0.06800696
55	0x3d7b0a53	0.061289143
56	0xbd24c515	-0.040227015
57	0x3d3afe0b	0.04565243
58	0x3cd5d5b1	0.026102873
59	0x3dc5e12d	0.096620895
60	0x3da18d84	0.0788832
61	0x3e253820	0.16134691
62	0x3de97fab	0.11401304
63	0xbb05ff9b	-0.0020446542
64	0x3db7b27b	0.08969589
65	0x3e0cea42	0.13761237
66	0x3d899a4a	0.067188814
67	0x3d974ba7	0.073874764
68	0x3d86764a	0.065655306
69	0x3df4ef02	0.119596496
70	0x3cd0ca89	0.025487201
71	0x3ca4c4c9	0.020113366
72	0x3c8c591c	0.017132334
73	0x3c942b03	0.018086916
74	0x3a3b2e83	0.00071404147
75	0x3dcb3ae0	0.09923339
76	0x3d3f1ef9	0.046660397
77	0x3cd83dd6	0.026396673
78	0x3ddb459c	0.10706636
79	0x3d89e19f	0.06732487
80	0x3df19474	0.11795893
81	0x3ac02725	0.0014660103
82	0x3db86d3b	0.09005209
83	0x3dd6e433	0.10492744
84	0xbc2f2736	-0.010690501
85	0x3d7cf9f2	0.061761804
86	0x3cfb0518	0.030642077
87	0x3cb96164	0.022629447
88	0x3bdb87f0	0.0066995546
89	0x3e016a78	0.12638271
90	0x3dab6a76	0.08369915
91	0xbd13bf4b	-0.036071103
92	0xbc4f627a	-0.012657756
93	0x3caba3fe	0.020952221
94	0x3c689979	0.014196747
95	0xbd40d4e8	-0.047078043
96	0xbb84b12d	-0.0040494413
97	0x3cbecc20	0.023290694
98	0xbd88da12	-0.066822186
99	0xbda3dd07	-0.08001142
100	0xbd85b399	-0.06528396
101	0xbcb3e18b	-0.021958133
102	0xbdac2c4f	-0.08406889
103	0xbd827985	-0.06370834
104	0xbdcebeb5	-0.10094968
105	0xbd1fa789	-0.038978133
106	0xbd9a1a83	-0.07524588
107	0xbbad1ac9	-0.005282734
108	0xbc99a2ca	-0.018754382
109	0xbdc4fedb	-0.09618922
110	0xbccc06e7	-0.024905635
111	0xbd38efb1	-0.045150463
112	0xbce336d8	-0.027736112
113	0xbd08f308	-0.033434898
114	0xbbd03b3e	-0.0063547185
115	0xbdc3f3cf	-0.09567987
116	0xbdecb6fe	-0.115583405
117	0xbdfba461	-0.12287212
118	0xbdd092d1	-0.10184253
119	0xbd185fcc	-0.037200734
120	0xbd6e18b1	-0.058129016
121	0xbce0df6b	-0.027450284
122	0xbd0883db	-0.033328872
123	0xbdf42040	-0.11920214
124	0xbcf00b6a	-0.029302318
125	0xbd5107c9	-0.051032815
126	0xbd7d768c	-0.061880633
127	0xbc90a445	-0.017656455
128	0xbce7f3b5	-0.02831445
129	0xbd61ed76	-0.0551581
130	0xbdc3c854	-0.09559694
131	0xbd07afd2	-0.03312666
132	0xbcb96d44	-0.02263511
133	0xbdd78b48	-0.10524613
134	0xbd8301d2	-0.063968316
135	0xbd69c278	-0.057070225
136	0xbd9497c9	-0.07255513
137	0xbd7283cf	-0.059207734
138	0xbdafe45f	-0.0858848
139	0xbd82cb53	-0.06386437
140	0xbd1c979f	-0.038230535
141	0xbdcc4b02	-0.09975244
142	0xbcebe4b5	-0.02879558
143	0xbdb34eb1	-0.087552436
144	0xbd71f733	-0.05907364
145	0xbd873297	-0.06601446
146	0xbdd14796	-0.10218732
147	0xbb7a75be	-0.0038217152
148	0xbba0f3eb	-0.00491189
149	0x3cdf9c90	0.027296335
150	0xbd0b45aa	-0.034001984
151	0xbcf0ecb0	-0.029409736
152	0xbcd4ccd8	-0.025976583
153	0x3caee80e	0.021350887
154	0xbd7f15ef	-0.062276777
155	0xbd25cb0e	-0.04047685
156	0x3d47f381	0.048816208
157	0x3bb23063	0.005437897
158	0xbc8b4c94	-0.017004289
159	0xbc85a009	-0.016311662
160	0xbcf51f37	-0.029922111
161	0xbd66fbab	-0.056392353
162	0x3d547d18	0.05187711
163	0xbbb0e788	-0.0053986944
164	0xbcb1ee77	-0.021720154
165	0xbc1c273e	-0.00953084
166	0xbbac21a3	-0.0052530332
167	0x3b6a635a	0.0035764785
168	0x3c84768c	0.016169809
169	0x3d530f7b	0.051528435
170	0x3c932ab9	0.017964708
171	0x3c61f26e	0.01379071
172	0xbd6a8908	-0.05725959
173	0xbd00c786	-0.03144028
174	0xbd3e8484	-0.046513095
175	0x3bb454f3	0.005503291
176	0xbccec2c0	-0.025239348
177	0xbc14ffb5	-0.009094168
178	0x3c9853c7	0.018594636
179	0xbd5ccae4	-0.05390443
180	0xbd9659c1	-0.07341338
181	0xbd247db1	-0.04015893
182	0xbc9e8cb6	-0.019354206
183	0xbd679a98	-0.056543916
184	0x3c298789	0.0103472555
185	0xbd7fce1a	-0.062452413
186	0xbd3d1cb6	-0.04616996
187	0xbd69d97f	-0.057092186
188	0x3c8a5a5a	0.016888786
189	0xbd2777fe	-0.040885918
190	0x3c2abfb9	0.010421687
191	0x3cc474d4	0.02398149
192	0xbd29fb87	-0.04149964
193	0x3c94a6da	0.018145967
194	0xbce9d063	-0.02854175
195	0xbc8d090f	-0.017216234
196	0x3cc0a70b	0.023517152
197	0xbd6c2d09	-0.057660136
198	0xbd810669	-0.06300051
199	0xbc8f765d	-0.017512495
200	0xbd40cacf	-0.047068413
201	0x3cc949cb	0.02457132
202	0xbcd31aab	-0.025769552
203	0xbd7fb423	-0.06242765
204	0xbd942567	-0.072336964
205	0xbd0f1de8	-0.03494063
206	0x3cdd5bd4	0.027021326
207	0x3da96c73	0.08272638
208	0x3e1b5c4d	0.15171929
209	0x3d06fabc	0.032953963
210	0xbd37af4e	-0.044844918
211	0x3cbbb070	0.02291128
212	0xbae35a52	-0.0017345643
213	0x3d856144	0.065126926
214	0x3dc85f30	0.097837806
215	0x3d994672	0.074841395
216	0x3d1fc8ba	0.039009787
217	0xbc6933ac	-0.014233511
218	0xbd2f5975	-0.042809922
219	0x3ccc5446	0.024942528
220	0xbc911caa	-0.017713863
221	0x3d344e42	0.044019945
222	0xbc7a0141	-0.015259088
223	0x3d0eadf1	0.034833852
224	0xbd4e9847	-0.05043819
225	0xbcb879a9	-0.02251895
226	0x3d61b8bd	0.05510782
227	0x3d0b5156	0.034013115
228	0x3d56daa2	0.0524546
229	0xbcc00af6	-0.023442727
230	0x3d1e63e8	0.038669497
231	0xbcecae8d	-0.028891826
232	0x3d3c09f8	0.045907944
233	0x3c1dbe8d	0.00962795
234	0x3d94acf2	0.07259549
235	0x3ba73e0a	0.005103831
236	0x3c883d22	0.016630713
237	0x3d293e9c	0.041319475
238	0xbc239781	-0.009984852
239	0xbd8d248d	-0.06891737
240	0x399d9df4	0.00030063058
241	0xba13d0b6	-0.00056387053
242	0xbd5e6906	-0.054299377
243	0xbc0905ea	-0.008363226
244	0xbd7822c7	-0.06058004
245	0xbdd0d515	-0.10196892
246	0xbbf9f208	-0.0076277293
247	0x3b909315	0.004412065
248	0x3d409ce4	0.047024623
249	0x3d19357a	0.037404515
250	0x3c80c93d	0.015720958
251	0x3d3985f2	0.045293756
252	0xbbaf247c	-0.0053449254
253	0x3d80ddfe	0.06292342
254	0x3d92759b	0.07151338
255	0x3d882a87	0.066487364

vowel.bias f4 [11]
0	0xbe09d136	-0.13458714
1	0xbdd02922	-0.101640955
2	0xbe0d279f	-0.13784645
3	0xbe3bbbf3	-0.18333416
4	0xbdf8a0b9	-0.121400304
5	0xbe64ca59	-0.22342815
6	0xbe315ace	-0.17319795
7	0xbe2c9f2b	-0.16857593
8	0xbe1f5df6	-0.15563187
9	0xbe440b52	-0.19144943
10	0xbe5f7874	-0.21823293
